…
          "arguments": "{\"command\": \"python -c \\\"\\nfrom transformers import AutoModelForSequenceClassification\\nmodel = AutoModelForSequenceClassification.from_pretrained('distilbert-base-uncased-finetuned-sst-2-english', num_labels=2)\\nprint(model)\\nprint(type(model))\\n\\\"\"}",
          "name": "bash"
        },
        "id": "chatcmpl-tool-b40e07aea7d04601",
        "type": "function"
      }
    ],
    "function_call": null,
    "provider_specific_fields": {
      "reasoning": null,
      "refusal": null
    }
  },
  {
    "role": "tool",
    "tool_call_id": "chatcmpl-tool-b40e07aea7d04601",
    "content": "DistilBertForSequenceClassification(\n  (distilbert): DistilBertModel(\n    (embeddings): Embeddings(\n      (word_embeddings): Embedding(30522, 768, padding_idx=0)\n      (position_embeddings): Embedding(512, 768)\n      (LayerNorm): LayerNorm((768,), eps=1e-12, elementwise_affine=True)\n      (dropout): Dropout(p=0.1, inplace=False)\n    )\n    (transformer): Transformer(\n      (layer): ModuleList(\n        (0-5): 6 x TransformerBlock(\n          (attention): DistilBertSdpaAttention(\n            (dropout): Dropout(p=0.1, inplace=False)\n            (q_lin): Linear(in_features=768, out_features=768, bias=True)\n            (k_lin): Linear(in_features=768, out_features=768, bias=True)\n            (v_lin): Linear(in_features=768, out_features=768, bias=True)\n            (out_lin): Linear(in_features=768, out_features=768, bias=True)\n          )\n          (sa_layer_norm): LayerNorm((768,), eps=1e-12, elementwise_affine=True)\n          (ffn): FFN(\n            (dropout): Dropout(p=0.1, inplace=False)\n            (lin1): Linear(in_features=768, out_features=3072, bias=True)\n            (lin2): Linear(in_features=3072, out_features=768, bias=True)\n            (activation): GELUActivation()\n          )\n          (output_layer_norm): LayerNorm((768,), eps=1e-12, elementwise_affine=True)\n        )\n      )\n    )\n  )\n  (pre_classifier): Linear(in_features=768, out_features=768, bias=True)\n  (classifier): Linear(in_features=768, out_features=2, bias=True)\n  (dropout): Dropout(p=0.2, inplace=False)\n)\n<class 'transformers.models.distilbert.modeling_distilbert.DistilBertForSequenceClassification'>\n\n(exit_code=0)"
  },
  {
    "content": null,
    "role": "assistant",
    "tool_calls": [
      {
        "function": {
          "arguments": "{\"command\": \"python -c \\\"\\nfrom transformers import AutoModelForSequenceClassification\\nmodel = AutoModelForSequenceClassification.from_pretrained('distilbert-base-uncased-finetuned-sst-2-english', num_labels=2)\\nprint(model.classifier)\\n\\\"\"}",
…
