…
rint('Model structure:')\\nprint(model)\\nprint()\\nprint('Named children:')\\nfor name, child in model.named_children():\\n    print(f'  {name}: {type(child).__name__}')\\n\\\"\"}",
          "name": "bash"
        },
        "id": "chatcmpl-tool-9b5702fdb8f50488",
        "type": "function"
      }
    ],
    "function_call": null,
    "provider_specific_fields": {
      "refusal": null,
      "reasoning": null
    }
  },
  {
    "role": "tool",
    "tool_call_id": "chatcmpl-tool-9b5702fdb8f50488",
    "content": "Model structure:\nLlamaForCausalLM(\n  (model): LlamaModel(\n    (embed_tokens): Embedding(1000, 512)\n    (layers): ModuleList(\n      (0-3): 4 x LlamaDecoderLayer(\n        (self_attn): LlamaAttention(\n          (q_proj): Linear(in_features=512, out_features=512, bias=False)\n          (k_proj): Linear(in_features=512, out_features=512, bias=False)\n          (v_proj): Linear(in_features=512, out_features=512, bias=False)\n          (o_proj): Linear(in_features=512, out_features=512, bias=False)\n        )\n        (mlp): LlamaMLP(\n          (gate_proj): Linear(in_features=512, out_features=1024, bias=False)\n          (up_proj): Linear(in_features=512, out_features=1024, bias=False)\n          (down_proj): Linear(in_features=1024, out_features=512, bias=False)\n          (act_fn): SiLUActivation()\n        )\n        (input_layernorm): LlamaRMSNorm((512,), eps=1e-05)\n        (post_attention_layernorm): LlamaRMSNorm((512,), eps=1e-05)\n      )\n    )\n    (norm): LlamaRMSNorm((512,), eps=1e-05)\n    (rotary_emb): LlamaRotaryEmbedding()\n  )\n  (lm_head): Linear(in_features=512, out_features=1000, bias=False)\n)\n\nNamed children:\n  model: LlamaModel\n  lm_head: Linear\n\n(exit_code=0)"
  },
  {
    "content": "Now I understand the structure of LlamaForCausalLM:\n- `model`: LlamaModel containing the transformer layers\n- `lm_head`: The final linear layer for output\n\nFor pipeline parallelism, I need to:\n1. Partition the model layers across ranks\n2. Run forward passes for all microbatches\n3. Run backward passes for all microbatches\n\nLet me look at the LlamaModel structure to understand the layers better.\n</think>\n\n",
…
me}: {type(child).__name__}')\\n    if hasattr(child, 'named_children'):\\n        for child_name, subchild in child.named_children():\\n            print(f'    {child_name}: {type(subchild).__name__}')\\n\\\"\"}",
          "name": "bash"
        },
        "id": "chatcmpl-tool-937b35d02b4d7dad",
        "type": "function"
      }
    ],
    "function_call": null,
    "provider_specific_fields": {
      "refusal": null,
      "reasoning": null
    }
  },
  {
    "role": "tool",
    "tool_call_id": "chatcmpl-tool-937b35d02b4d7dad",
    "content": "Model structure:\nLlamaModel(\n  (embed_tokens): Embedding(1000, 512)\n  (layers): ModuleList(\n    (0-3): 4 x LlamaDecoderLayer(\n      (self_attn): LlamaAttention(\n        (q_proj): Linear(in_features=512, out_features=512, bias=False)\n        (k_proj): Linear(in_features=512, out_features=512, bias=False)\n        (v_proj): Linear(in_features=512, out_features=512, bias=False)\n        (o_proj): Linear(in_features=512, out_features=512, bias=False)\n      )\n      (mlp): LlamaMLP(\n        (gate_proj): Linear(in_features=512, out_features=1024, bias=False)\n        (up_proj): Linear(in_features=512, out_features=1024, bias=False)\n        (down_proj): Linear(in_features=1024, out_features=512, bias=False)\n        (act_fn): SiLUActivation()\n      )\n      (input_layernorm): LlamaRMSNorm((512,), eps=1e-05)\n      (post_attention_layernorm): LlamaRMSNorm((512,), eps=1e-05)\n    )\n  )\n  (norm): LlamaRMSNorm((512,), eps=1e-05)\n  (rotary_emb): LlamaRotaryEmbedding()\n)\n\nNamed children:\n  embed_tokens: Embedding\n  layers: ModuleList\n    0: LlamaDecoderLayer\n    1: LlamaDecoderLayer\n    2: LlamaDecoderLayer\n    3: LlamaDecoderLayer\n  norm: LlamaRMSNorm\n  rotary_emb: LlamaRotaryEmbedding\n\n(exit_code=0)"
…
