…
    "content": "No caffemodel was created. The training didn't complete. Let me check the training output for errors.\n</think>\n\n",
    "role": "assistant",
    "tool_calls": [
      {
        "function": {
          "arguments": "{\"command\": \"tail -100 /app/caffe/training_output.txt\"}",
          "name": "bash"
        },
        "id": "chatcmpl-tool-ad71c5030f3a5643",
        "type": "function"
      }
    ],
    "function_call": null,
    "provider_specific_fields": {
      "refusal": null,
      "reasoning": null
    }
  },
  {
    "role": "tool",
    "tool_call_id": "chatcmpl-tool-ad71c5030f3a5643",
    "content": "I20260609 20:25:51.074613 10035 net.cpp:131] Top shape: 100 32 8 8 (204800)\nI20260609 20:25:51.074620 10035 net.cpp:139] Memory required for data: 28263600\nI20260609 20:25:51.074625 10035 layer_factory.hpp:77] Creating layer conv3\nI20260609 20:25:51.074631 10035 net.cpp:86] Creating Layer conv3\nI20260609 20:25:51.074637 10035 net.cpp:408] conv3 <- pool2\nI20260609 20:25:51.074643 10035 net.cpp:382] conv3 -> conv3\nI20260609 20:25:51.074954 10035 net.cpp:124] Setting up conv3\nI20260609 20:25:51.074961 10035 net.cpp:131] Top shape: 100 64 8 8 (409600)\nI20260609 20:25:51.074972 10035 net.cpp:139] Memory required for data: 29902000\nI20260609 20:25:51.074980 10035 layer_factory.hpp:77] Creating layer relu3\nI20260609 20:25:51.074986 10035 net.cpp:86] Creating Layer relu3\nI20260609 20:25:51.074996 10035 net.cpp:408] relu3 <- conv3\nI20260609 20:25:51.075003 10035 net.cpp:369] relu3 -> conv3 (in-place)\nI20260609 20:25:51.075011 10035 net.cpp:124] Setting up relu3\nI20260609 20:25:51.075017 10035 net.cpp:131] Top shape: 100 64 8 8 (409600)\nI20260609 20:25:51.075026 10035 net.cpp:139] Memory required for data: 31540400\nI20260609 20:25:51.075032 10035 layer_factory.hpp:77] Creating layer pool3\nI20260609 20:25:51.075042 10035 net.cpp:86] Creating Layer pool3\nI20260609 20:25:51.075047 10035 net.cpp:408] pool3 <- conv3\nI20260609 20:25:51.075054 10035 net.cpp:382] pool3 -> pool3\nI20260609 20:25:51.075062 10035 net.cpp:124] Setting up pool3\nI20260609 20:25:51.075073 10035 net.cpp:131] Top shape: 100 64 4 4 (102400)\nI20260609 20:25:51.075088 10035 net.cpp:139] Memory required for data: 31950000\nI20260609 20:25:51.075093 10035 layer_factory.hpp:77] Creating layer ip1\nI20260609 20:25:51.075104 10035 net.cpp:86] Creating Layer ip1\nI20260609 20:25:51.075110 10035 net.cpp:408] ip1 <- pool3\nI20260609 20:25:51.075119 10035 net.cpp:382] ip1 -> ip1\nI20260609 20:25:51.075505 10035 net.cpp:124] Setting up ip1\nI20260609 20:25:51.075513 10035 net.cpp:131] Top shape: 100 64 (6400)\nI20260609 20:25:51.075521 10035 net.cpp:139] Memory required for data: 31975600\nI20260609 20:25:51.075531 10035 layer_factory.hpp:77] Creating layer ip2\nI20260609 20:25:51.075537 10035 net.cpp:86] Creating Layer ip2\nI20260609 20:25:51.075543 10035 net.cpp:408] ip2 <- ip1\nI20260609 20:25:51.075549 10035 net.cpp:382] ip2 -> ip2\nI20260609 20:25:51.075564 10035 net.cpp:124] Setting up ip2\nI20260609 20:25:51.075572 10035 net.cpp:131] Top shape: 100 10 (1000)\nI20260609 20:25:51.075578 10035 net.cpp:139] Memory required for data: 31979600\nI20260609 20:25:51.075585 10035 layer_factory.hpp:77] Creating layer ip2_ip2_0_split\nI20260609 20:25:51.075591 10035 net.cpp:86] Creating Layer ip2_ip2_0_split\nI20260609 20:25:51.075598 10035 net.cpp:408] ip2_ip2_0_split <- ip2\nI20260609 20:25:51.075606 10035 net.cpp:382] ip2_ip2_0_split -> ip2_ip2_0_split_0\nI20260609 20:25:51.075615 10035 net.cpp:382] ip2_ip2_0_split -> ip2_ip2_0_split_1\nI20260609 20:25:51.075624 10035 net.cpp:124] Setting up ip2_ip2_0_split\nI20260609 20:25:51.075631 10035 net.cpp:131] Top shape: 100 10 (1000)\nI20260609 20:25:51.075639 10035 net.cpp:131] Top shape: 100 10 (1000)\nI20260609 20:25:51.075644 10035 net.cpp:139] Memory required for data: 31987600\nI20260609 20:25:51.075652 10035 layer_factory.hpp:77] Creating layer accuracy\nI20260609 20:25:51.075662 10035 net.cpp:86] Creating Layer accuracy\nI20260609 20:25:51.075670 10035 net.cpp:408] accuracy <- ip2_ip2_0_split_0\nI20260609 20:25:51.075687 10035 net.cpp:408] accuracy <- label_cifar_1_split_0\nI
…
er cifar\nI20260609 20:28:13.571647 10144 db_lmdb.cpp:35] Opened lmdb examples/cifar10/cifar10_train_lmdb\nI20260609 20:28:13.571681 10144 net.cpp:86] Creating Layer cifar\nI20260609 20:28:13.571688 10144 net.cpp:382] cifar -> data\nI20260609 20:28:13.571717 10144 net.cpp:382] cifar -> label\nI20260609 20:28:13.571727 10144 data_transformer.cpp:25] Loading mean file from: examples/cifar10/mean.binaryproto\nI20260609 20:28:13.571800 10144 data_layer.cpp:45] output data size: 100,3,32,32\nI20260609 20:28:13.571962 10144 net.cpp:124] Setting up cifar\nI20260609 20:28:13.571971 10144 net.cpp:131] Top shape: 100 3 32 32 (307200)\nI20260609 20:28:13.571977 10144 net.cpp:131] Top shape: 100 (100)\nI20260609 20:28:13.571981 10144 net.cpp:139] Memory required for data: 1229200\nI20260609 20:28:13.571987 10144 layer_factory.hpp:77] Creating layer conv1\nI20260609 20:28:13.572000 10144 net.cpp:86] Creating Layer conv1\nI20260609 20:28:13.572009 10144 net.cpp:408] conv1 <- data\nI20260609 20:28:13.572017 10144 net.cpp:382] conv1 -> conv1\nI20260609 20:28:13.572067 10144 net.cpp:124] Setting up conv1\nI20260609 20:28:13.572072 10144 net.cpp:131] Top shape: 100 32 32 32 (3276800)\nI20260609 20:28:13.572077 10144 net.cpp:139] Memory required for data: 14336400\nI20260609 20:28:13.572088 1\n---- 16323 chars elided ----\n---- TAIL (5000 chars) ----\n09 20:28:13.580782 10144 net.cpp:382] ip2 -> ip2\nI20260609 20:28:13.580793 10144 net.cpp:124] Setting up ip2\nI20260609 20:28:13.580797 10144 net.cpp:131] Top shape: 100 10 (1000)\nI20260609 20:28:13.580801 10144 net.cpp:139] Memory required for data: 31979600\nI20260609 20:28:13.580806 10144 layer_factory.hpp:77] Creating layer ip2_ip2_0_split\nI20260609 20:28:13.580811 10144 net.cpp:86] Creating Layer ip2_ip2_0_split\nI20260609 20:28:13.580814 10144 net.cpp:408] ip2_ip2_0_split <- ip2\nI20260609 20:28:13.580821 10144 net.cpp:382] ip2_ip2_0_split -> ip2_ip2_0_split_0\nI20260609 20:28:13.580826 10144 net.cpp:382] ip2_ip2_0_split -> ip2_ip2_0_split_1\nI20260609 20:28:13.580832 10144 net.cpp:124] Setting up ip2_ip2_0_split\nI20260609 20:28:13.580835 10144 net.cpp:131] Top shape: 100 10 (1000)\nI20260609 20:28:13.580839 10144 net.cpp:131] Top shape: 100 10 (1000)\nI20260609 20:28:13.580843 10144 net.cpp:139] Memory required for data: 31987600\nI20260609 20:28:13.580847 10144 layer_factory.hpp:77] Creating layer accuracy\nI20260609 20:28:13.580852 10144 net.cpp:86] Creating Layer accuracy\nI20260609 20:28:13.580857 10144 net.cpp:408] accuracy <- ip2_ip2_0_split_0\nI20260609 20:28:13.580861 10144 net.cpp:408] accuracy <- label_cifar_1_split_0\nI
…
