…
ision=revision)\\nprint(\\\"Model loaded successfully\\\")\\nprint(type(model))\\nprint(model)\\nEOF\\n\"}",
          "name": "bash"
        },
        "id": "chatcmpl-tool-aa96bbe0c8a26022",
        "type": "function"
      }
    ],
    "function_call": null,
    "provider_specific_fields": {
      "refusal": null,
      "reasoning": null
    }
  },
  {
    "role": "tool",
    "tool_call_id": "chatcmpl-tool-aa96bbe0c8a26022",
    "content": "Model loaded successfully\n<class 'transformers.models.bert.modeling_bert.BertModel'>\nBertModel(\n  (embeddings): BertEmbeddings(\n    (word_embeddings): Embedding(21128, 512, padding_idx=0)\n    (position_embeddings): Embedding(512, 512)\n    (token_type_embeddings): Embedding(2, 512)\n    (LayerNorm): LayerNorm((512,), eps=1e-12, elementwise_affine=True)\n    (dropout): Dropout(p=0.1, inplace=False)\n  )\n  (encoder): BertEncoder(\n    (layer): ModuleList(\n      (0-3): 4 x BertLayer(\n        (attention): BertAttention(\n          (self): BertSdpaSelfAttention(\n            (query): Linear(in_features=512, out_features=512, bias=True)\n            (key): Linear(in_features=512, out_features=512, bias=True)\n            (value): Linear(in_features=512, out_features=512, bias=True)\n            (dropout): Dropout(p=0.1, inplace=False)\n          )\n          (output): BertSelfOutput(\n            (dense): Linear(in_features=512, out_features=512, bias=True)\n            (LayerNorm): LayerNorm((512,), eps=1e-12, elementwise_affine=True)\n            (dropout): Dropout(p=0.1, inplace=False)\n          )\n        )\n        (intermediate): BertIntermediate(\n          (dense): Linear(in_features=512, out_features=2048, bias=True)\n          (intermediate_act_fn): GELUActivation()\n        )\n        (output): BertOutput(\n          (dense): Linear(in_features=2048, out_features=512, bias=True)\n          (LayerNorm): LayerNorm((512,), eps=1e-12, elementwise_affine=True)\n          (dropout): Dropout(p=0.1, inplace=False)\n        )\n      )\n    )\n  )\n  (pooler): BertPooler(\n    (dense): Linear(in_features=512, out_features=512, bias=True)\n    (activation): Tanh()\n  )\n)\n\n(exit_code=0)"
  },
  {
    "content": "Now I understand. The model is loaded correctly. The issue is that SentenceTransformer expects a string path, not a model object. Let me try to create a SentenceTransformer model by loading the model and then creating a sentence transformer model from it.\n</think>\n\n",
    "role": "assistant",
…
