…
 \"Dense\",\n    \"Dropout\",\n    \"LayerNorm\",\n    \"LSTM\",\n    \"Normalize\",\n    \"Pooling\",\n    \"WeightedLayerPooling\",\n    \"WordEmbeddings\",\n    \"WordWeights\",\n    \"CLIPModel\",\n    \"Module\",\n    \"InputModule\",\n    \"Router\",\n]\n\n\n\nChecking transformers AutoModel:\n  AutoModel.from_pretrained('BAAI/bge-small-en-v1.5')\n  AutoModel.from_pretrained('BAAI/bge-base-en-v1.5')\n  AutoModel.from_pretrained('BAAI/bge-large-en-v1.5')\n\n\nAvailable models on HuggingFace (BGE):\n  BAAI/bge-small-en-v1.5: BertModel(\n  (embeddings): BertEmbeddings(\n    (word_embeddings): Embedding(30522, 384, padding_idx=0)\n    (position_embeddings): Embedding(512, 384)\n    (token_type_embeddings): Embedding(2, 384)\n    (LayerNorm): LayerNorm((384,), eps=1e-12, elementwise_affine=True)\n    (dropout): Dropout(p=0.1, inplace=False)\n  )\n  (encoder): BertEncoder(\n    (layer): ModuleList(\n      (0-11): 12 x BertLayer(\n        (attention): BertAttention(\n          (self): BertSdpaSelfAttention(\n            (query): Linear(in_features=384, out_features=384, bias=True)\n            (key): Linear(in_features=384, out_features=384, bias=True)\n            (value): Linear(in_features=384, out_features=384, bias=True)\n            (dropout): Dropout(p=0.1, inplace=False)\n          )\n          (output): BertSelfOutput(\n            (dense): Linear(in_features=384, out_features=384, bias=True)\n            (LayerNorm): LayerNorm((384,), eps=1e-12, elementwise_affine=True)\n            (dropout): Dropout(p=0.1, inplace=False)\n          )\n        )\n        (intermediate): BertIntermediate(\n          (dense): Linear(in_features=384, out_features=1536, bias=True)\n          (intermediate_act_fn): GELUActivation()\n        )\n        (output): BertOutput(\n          (dense): Linear(in_features=1536, out_features=384, bias=True)\n          (LayerNorm): LayerNorm((384,), eps=1e-12, elementwise_affine=True)\n          (dropout): Dropout(p=0.1, inplace=False)\n        )\n      )\n    )\n  )\n  (pooler): BertPooler(\n    (dense): Linear(in_features=384, out_features=384, bias=True)\n    (activation): Tanh()\n  )\n)\n  BAAI/bge-base-en-v1.5: BertModel(\n  (embeddings): BertEmbeddings(\n    (word_embeddings): Embedding(30522, 768, padding_idx=0)\n    (position_embeddings): Embedding(512, 768)\n    (token_type_embeddings): Embedding(2, 768)\n    (LayerNorm): LayerNorm((768,), eps=1e-12, elementwise_affine=True)\n    (dropout): Dropout(p=0.1, inplace=False)\n  )\n  (encoder): BertEncoder(\n    (layer): ModuleList(\n      (0-11): 12 x BertLayer(\n        (attention): BertAttention(\n          (self): BertSdpaSelfAttention(\n            (query): Linear(in_features=768, out_features=768, bias=True)\n            (key): Linear(in_features=768, out_features=768, bias=True)\n            (value): Linear(in_features=768, out_features=768, bias=True)\n            (dropout): Dropout(p=0.1, inplace=False)\n          )\n          (output): BertSelfOutput(\n            (dense): Linear(in_features=768, out_features=768, bias=True)\n            (LayerNorm): LayerNorm((768,), eps=1e-12, elementwise_affine=True)\n            (dropout): Dropout(p=0.1, inplace=False)\n          )\n        )\n        (intermediate): BertIntermediate(\n          (dense): Linear(in_features=768, out_features=3072, bias=True)\n          (intermediate_act_fn): GELUActivation()\n        )\n        (output): BertOutput(\n          (dense): Linear(in_features=3072, out_features=768, bias=True)\n          (LayerNorm): LayerNorm((768,), eps=1e-12, elementwise_affine=True)\n          (dropout): Dropout(p=0.1, inplace=False)\n        )\n      )\n    )\n  )\n  (pooler): BertPooler(\n    (dense): Linear(in_features=768, out_features=768, bias=True)\n    (activation): Tanh()\n  )\n)\n  BAAI/bge-large-en-v1.5: BertModel(\n  (embeddings): BertEmbeddings(\n    (word_embeddings): Embedding(30522, 1024, padding_idx=0)\n    (position_embeddings): Embedding(512, 1024)\n    (token_type_embeddings): Embedding(2, 1024)\n    (LayerNorm): LayerNorm((1024,), eps=1e-12, elementwise_affine=True)\n    (dropout): Dropout(p=0.1, inplace=False)\n  )\n  (encoder): BertEncoder(\n    (layer): ModuleList(\n      (0-23): 24 x BertLayer(\n        (attention): BertAttention(\n          (self): BertSdpaSelfAttention(\n            (query): Linear(in_features=1024, out_features=1024, bias=True)\n            (key): Linear(in_features=1024, out_features=1024, bias=True)\n            (value): Linear(in_features=1024, out_features=1024, bias=True)\n            (dropout): Dropout(p=0.1, inplace=False)\n          )\n          (output): BertSelfOutput(\n            (dense): Linear(in_features=1024, out_features=1024, bias=True)\n            (LayerNorm): LayerNorm((1024,), eps=1e-12, elementwise_affine=True)\n            (dropout): Dropout(p=0.1, inplace=False)\n          )\n        )\n        (intermediate): BertIntermediate(\n          (dense): Linear(in_features=1024, out_features=4096, bias=True)\n          (intermediate_act_fn): GELUActivation()\n        )\n        (output): BertOutput(\n          (dense): Linear(in_features=4096, out_features=1024, bias=True)\n          (LayerNorm): LayerNorm((1024,), eps=1e-12, elementwise_affine=True)\n          (dropout): Dropout(p=0.1, inplace=False)\n        )\n      )\n    )\n  )\n  (pooler): BertPooler(\n    (dense): Linear(in_features=1024, out_features=1024, bias=True)\n    (activation): Tanh()\n  )\n)\n\n(exit_code=0)"
  },
  {
    "content": "Now I can see the models on HuggingFace. Let me check if there's a way to get the official scores from the MTEB leaderboard. Let me look at the sentence-transformers source code to understand how it loads model info:\n\n",
    "role": "assistant",
    "tool_calls": [
      {
…
