…
ead)\\nprint('Number of transformer layers:', len(model.model.layers))\\n\\\"\"}",
          "name": "bash"
        },
        "id": "chatcmpl-tool-bedab4da9d438310",
        "type": "function"
      }
    ],
    "function_call": null,
    "provider_specific_fields": {
      "refusal": null,
      "reasoning": null
    }
  },
  {
    "role": "tool",
    "tool_call_id": "chatcmpl-tool-bedab4da9d438310",
    "content": "torch: 2.12.1+cpu\nModel type: <class 'transformers.models.llama.modeling_llama.LlamaForCausalLM'>\nModel layers: [LlamaDecoderLayer(\n  (self_attn): LlamaAttention(\n    (q_proj): Linear(in_features=64, out_features=64, bias=False)\n    (k_proj): Linear(in_features=64, out_features=64, bias=False)\n    (v_proj): Linear(in_features=64, out_features=64, bias=False)\n    (o_proj): Linear(in_features=64, out_features=64, bias=False)\n  )\n  (mlp): LlamaMLP(\n    (gate_proj): Linear(in_features=64, out_features=128, bias=False)\n    (up_proj): Linear(in_features=64, out_features=128, bias=False)\n    (down_proj): Linear(in_features=128, out_features=64, bias=False)\n    (act_fn): SiLUActivation()\n  )\n  (input_layernorm): LlamaRMSNorm((64,), eps=1e-06)\n  (post_attention_layernorm): LlamaRMSNorm((64,), eps=1e-06)\n), LlamaDecoderLayer(\n  (self_attn): LlamaAttention(\n    (q_proj): Linear(in_features=64, out_features=64, bias=False)\n    (k_proj): Linear(in_features=64, out_features=64, bias=False)\n    (v_proj): Linear(in_features=64, out_features=64, bias=False)\n    (o_proj): Linear(in_features=64, out_features=64, bias=False)\n  )\n  (mlp): LlamaMLP(\n    (gate_proj): Linear(in_features=64, out_features=128, bias=False)\n    (up_proj): Linear(in_features=64, out_features=128, bias=False)\n    (down_proj): Linear(in_features=128, out_features=64, bias=False)\n    (act_fn): SiLUActivation()\n  )\n  (input_layernorm): LlamaRMSNorm((64,), eps=1e-06)\n  (post_attention_layernorm): LlamaRMSNorm((64,), eps=1e-06)\n), LlamaDecoderLayer(\n  (self_attn): LlamaAttention(\n    (q_proj): Linear(in_features=64, out_features=64, bias=False)\n    (k_proj): Linear(in_features=64, out_features=64, bias=False)\n    (v_proj): Linear(in_features=64, out_features=64, bias=False)\n    (o_proj): Linear(in_features=64, out_features=64, bias=False)\n  )\n  (mlp): LlamaMLP(\n    (gate_proj): Linear(in_features=64, out_features=128, bias=False)\n    (up_proj): Linear(in_features=64, out_features=128, bias=False)\n    (down_proj): Linear(in_features=128, out_features=64, bias=False)\n    (act_fn): SiLUActivation()\n  )\n  (input_layernorm): LlamaRMSNorm((64,), eps=1e-06)\n  (post_attention_layernorm): LlamaRMSNorm((64,), eps=1e-06)\n)] ...\nlm_head: Linear(in_features=64, out_features=1000, bias=False)\nNumber of transformer layers: 8\n\n(exit_code=0)"
  },
  {
    "content": "Now I understand the model structure. Let me think abo
…
