…
m.data.shape: torch.Size([16, 32])\ninput_tensor shape: torch.Size([4, 16])\n\n(exit_code=1)"
  },
  {
    "content": "This is very strange. The weight shape is (16, 32) but the forward pass is failing with a shape mismatch indicating the weight is (32, 16).\n\nWait, I think I see the issue! The error message is printed AFTER the print statements, which means the forward pass is happening during the script execution but the print statements are being buffered. Let me check if the issue is with the order of operations.\n\nActually, looking at the output more carefully:\n1. master_weight shape: (16, 32) - correct\n2. weight shape before Parameter: (16, 32) - correct\n3. weight_param shape: (16, 32) - correct\n4. weight_param.data.shape: (16, 32) - correct\n5. input_tensor shape: (4, 16) - correct\n6. Then the error: \"mat1 and mat2 shapes cannot be multiplied (4x16 and 32x16)\"\n\nThis means that somehow the weight is being transposed between when we print its shape and when we use it in the forward pass. This is very strange.\n\nWait, I think I know what's happening! The error message is printed AFTER all the print statements because of buffering. But the actual error is happening because the weight is being used correctly but the error message is confusing.\n\nActually, let me re-read the error message: \"mat1 and mat2 shapes cannot be multiplied (4x16 and 32x16)\". This means:\n- mat1 is (4, 16) - input tensor\n- mat2 is (32, 16) - weight\n\nBut we just printed that the weight shape is (16, 32). This is a contradiction.\n\nOh wait, I think I see the issue! The error message is showing the shapes as (4x16 and 32x16) which means the weight is being interpreted as (32, 16). But we printed (16, 32). \n\nLet me check if there's something wrong with how PyTorch is displaying the shape or if there's some caching issue.\n\n\nActual
…
